Python Sine wave model/sine_model.tflite (tflite, 3168 bytes, 5 tensors)

sequential/dense_1/BiasAdd/ReadVariableOp f4 [16]
00000000: 0000 0000 32ad f03e 53f7 30be 0000 0000
00000010: 2264 0f3f 1e75 96be 21d4 073e 0000 0000
00000020: 0000 0000 0000 0000 bfe1 5b3d 0000 0000
00000030: e39f 26bf a620 8dbd e4c6 0cbf 0acd 9d3d
0.0 0.47007138 -0.17281847 0.0 0.56012166 -0.29386228 0.13264515 0.0
0.0 0.0 0.053682085 0.0 -0.6508772 -0.06890993 -0.54990983 0.07705124

sequential/dense/BiasAdd/ReadVariableOp f4 [16]
00000000: 7353 c9be 0000 0000 0000 0000 ae4c 413f
00000010: 0000 0000 64dc 01bf 2260 493e 0000 0000
00000020: f999 6ebe 3673 14bf 19ec 6cbe e277 943d
00000030: ab1f 3b3e e2fd 51be 0000 0000 0000 0000
-0.3932148 0.0 0.0 0.7550763 0.0 -0.50726914 0.19665578 0.0
-0.23300923 -0.579883 -0.23136939 0.07249428 0.18273799 -0.20507005 0.0 0.0

sequential/dense/MatMul f4 [16, 1]
00000000: 9e11 9a3e 3247 edbe 404c e3bc 3db7 063e
00000010: b7c6 9bbe ce4c 033f 7f80 f33e 4042 75bd
00000020: 68c0 883e 709d 813e 92b1 b03e dec0 eb3e
00000030: a238 bf3e 23af 023f d268 61be 30ed f2bd
0.30091566 -0.4634338 -0.02774632 0.13155837 -0.30425045 0.5128907 0.47558972 -0.059877634
0.26709294 0.25315428 0.34510475 0.46045583 0.37347895 0.5104849 -0.22012642 -0.11861646

sequential/dense_1/MatMul f4 [16, 16]
00000000: 76c9 c5be 6276 b4be 380c 873d 10ca 7abe
00000010: 639a 8abe 2529 70be 2492 b63d 4fb5 a0be
00000020: 1ea3 afbe 94e9 ffbd fe2e 8bbe 5a33 87be
00000030: 6300 cebe f2c1 babe 42dc 413e 4a3a 613e
00000040: 4413 d83e 4cc4 f43d 85c1 9f3e c338 203f
00000050: a0f4 5a3c a260 b2be d6e4 2cbf a1cb c33e
00000060: e86a f23e 3264 aebe f936 49bd 8c29 5ebe
00000070: 89b9 0c3d c67d c7be dbd0 d33e a054 c7bc
00000080: 77ee 0dbe ae1b 0abe 0009 6ebc 2a52 5f3e
00000090: 3b21 6ebe 0811 96be f3bd a33e e22e 0ebe
000000a0: 2818 2dbe cf5d 5dbe b066 aebe bc6b 553b
000000b0: 5000 0bbe d89d 943e bdd5 b43e c834 593d
000000c0: 802c d3bd 5051 74bd 4272 373e ea2b 0abe
000000d0: 3736 46be e864 b1bd c4a5 c03d 5a7a 123e
000000e0: a033 f63c 3a3f 80be 7044 6dbd 4c1f ae3d
000000f0: d9bf aabe ba45 6a3e 019f 953e 5c3f 43be
00000100: c855 02bf 6a4e 493e 1c4d afbd da1f b63e
00000110: f006 883d 42ad 0dbf e4b0 923e 2003 07be
00000120: 420d 29be ab01 d5bf 4456 b5be 142a e23e
00000130: 6d51 833e 095d 0fbe 8aca 81be a0b1 543d
00000140: 7a43 d63e 2c75 89be e036 2a3c c16a 8c3c
00000150: d516 923e 1b35 5f3c 99c4 8bbe b327 a83e
00000160: c86b 483c 5a13 9bbd c6ef 853d 95a7 ab3e
00000170: af92 813e f11a 65bd 585a b0bd 0489 97bd
00000180: f77c 183e c8c5 39bd 6e46 89be 08b3 ca3d
00000190: 93f3 c03e 3c45 a33e 6a8b 7dbe c145 b5be
000001a0: 6e45 6abe 1fc8 c7be 183d 143d e47d ad3e
000001b0: 6642 a4be fa65 943e a114 b93e 5c6e 10be
000001c0: 6047 afbe 1908 b93e 9030 b6bd cc87 84bd
000001d0: 2028 00be 35b8 99be 700f e33c 24b1 5cbe
000001e0: c9ff bfbe e087 db3c ec71 25be 0067 0e3d
000001f0: 5cad c1bd 52c8 0c3e e762 cfbe b893 36bd
00000200: 78ba 87be c527 913e 942b 7abe 30c4 bc3c
00000210: b4bf b2bd 3aa3 28be d7b8 cfbe 92bd 173e
00000220: 21f0 93be a9c8 993e 7246 c5be 68d3 3dbd
00000230: 8587 dcbe d65d 49be 9044 0d3d 4a2f 8ebe
00000240: 3a1b 713e 0204 a9be 8846 5dbe b0cd b9bd
00000250: a123 b33e c6af 4a3e 4c4b 60be 478b 8d3e
00000260: 7a3f 4fbe 9eed 97be 88c4 61be f40b 0abe
00000270: ec0c 92bd b66f 68be 1aa3 92be 40a2 a2bb
00000280: 90e8 8a3e 365c c6be 9097 3cbe 1e37 9bbd
00000290: 6112 d0be ecf4 a43e ce6c ad3e fe62 95be
000002a0: 4bc5 47be 3a73 32bf 6bc7 fbbb 3d53 b2be
000002b0: 4c57 6b3e abb1 073e ba02 163e 8a90 6c3e
000002c0: 55db 9d3e 1281 bebe 57f8 923e b6b2 9ebe
000002d0: e340 94be 39b5 b23e 8f8f 52be c743 a0be
000002e0: fb3f 8abe 221f aabe dcc2 9cbd 2276 82be
000002f0: 8c00 8b3d 3e4a c4be 9420 aabe 35e8 dabe
00000300: 22e4 543e 88bb 93be 6540 893e de5a 14bf
00000310: 00d2 093b 4dbb 8c3e 8b02 8bbd 1ecd 163e
00000320: 3711 973e c1aa 6a3f af5d 83be 292e 9c3e
00000330: d90d 81be 9bd1 103d f2d9 393e 9c20 f33d
00000340: 6cec fe3d 5c68 a5bd 1aac 283e b450 b43e
00000350: 30a1 b4bc e481 bbbe a95b 7e3e 3e9c 733e
00000360: eb0e a8be 6e89 85be 6072 c3bc 71c3 02bf
00000370: 5b2e cebe 28fc e4bd aa77 2bbe 7ad2 353e
00000380: cbf7 4d3d 0e48 7a3e fa16 053e 7ce2 36be
00000390: 2098 3b3c 8510 943e 32bf 77bd cf92 9fbe
000003a0: ec2d bb3e 777a 1d3f 9669 4fbe fb7d 59be
000003b0: fe3e 93be 2844 a73e 6399 953e b9cb d73e
000003c0: d941 a43e c407 e03d 30b4 b8be a5b3 023e
000003d0: e7ae ce3e b25e 02bd 855d 723e c549 d13e
000003e0: fd2f 2d3c 52f1 ee3d 5a81 0d3e 0e3c 093e
000003f0: 9b17 9bbe 920e 6b3e a51d a23e 1c9e a2be
-0.38630265 -0.3524657 0.065941274 -0.24491143 -0.27070913 -0.23453195 0.08914593 -0.31388327
-0.34304136 -0.12495723 -0.2718429 -0.26406366 -0.4023467 -0.36476094 0.18931678 0.21994892
0.42202199 0.11951503 0.3120233 0.6258661 0.013363987 -0.3483935 -0.67536676 0.38241294
0.47347188 -0.34060818 -0.04912469 -0.21695536 0.034356628 -0.38963145 0.41370282 -0.024332345
-0.13860498 -0.13487121 -0.014528513 0.21808687 -0.23254864 -0.2930987 0.31980857 -0.13885072
-0.16903746 -0.21617816 -0.3406272 0.0032565435 -0.13574338 0.29026675 0.3531932 0.05302885
-0.10311222 -0.05964786 0.1791468 -0.13493314 -0.19356619 -0.086618245 0.09406617 0.14304486
0.030053914 -0.25048238 -0.057926595 0.08502063 -0.33349493 0.22878161 0.29222873 -0.19067138
-0.5091214 0.19658819 -0.08559629 0.35571176 0.06641948 -0.55342495 0.28650582 -0.13184786
-0.16508964 -1.6641134 -0.35417378 0.44172728 0.2564806 -0.14000334 -0.25349838 0.05192721
0.41848356 -0.26847208 0.01038906 0.017140748 0.28533044 0.013623501 -0.2729843 0.32842788
0.012232728 -0.075720504 0.06539874 0.33526292 0.25307223 -0.055933896 -0.08610982 -0.073991805
0.1489142 -0.045354635 -0.26811546 0.09897429 0.37685832 0.3188876 -0.24760213 -0.3540478
-0.22878048 -0.39019868 0.036191076 0.3388511 -0.32081908 0.28984052 0.3614855 -0.14104599
-0.34234142 0.3613899 -0.08895981 -0.06471214 -0.12515306 -0.3002335 0.027717322 -0.21551949
-0.37499836 0.026798189 -0.16156739 0.034766197 -0.09456894 0.13748291 -0.40505144 -0.04457447
-0.26509452 0.28350654 -0.24430686 0.023042768 -0.08727971 -0.16468516 -0.4057071 0.14818409
-0.2889414 0.30035904 -0.38530308 -0.04634419 -0.43072143 -0.19664702 0.034489214 -0.27770454
0.23545542 -0.3301087 -0.21608937 -0.09072435 0.3498812 0.19793615 -0.21903723 0.27645323
-0.20239058 -0.29673475 -0.22047627 -0.13481122 -0.07131371 -0.22698864 -0.28640062 -0.0049631894
0.27130556 -0.38742226 -0.18417192 -0.07578872 -0.40639022 0.3221811 0.33872074 -0.29177088
-0.19508855 -0.6970707 -0.0076836846 -0.3482913 0.2298252 0.13251369 0.14649478 0.23102012
0.308314 -0.37207848 0.28705093 -0.3099572 -0.28955755 0.34903887 -0.20562576 -0.3130171
-0.27001938 -0.33226877 -0.07654354 -0.25480753 0.06787214 -0.38337892 -0.3322798 -0.42755285
0.20790151 -0.28854012 0.26806942 -0.5795115 0.002102971 0.2748665 -0.067875944 0.14726683
0.2950532 0.916668 -0.25657412 0.30503967 -0.25205877 0.035356145 0.18149546 0.11871454
0.12447438 -0.080765456 0.16471902 0.35217822 -0.022049516 -0.36622536 0.24839653 0.2379007
-0.32823882 -0.26081413 -0.02385825 -0.5107947 -0.4026974 -0.111809075 -0.16744867 0.17756072
0.050285142 0.24441549 0.12997046 -0.17859834 0.011449844 0.28918853 -0.060485072 -0.31166694
0.36558473 0.6151499 -0.20255122 -0.21239464 -0.28758997 0.32669187 0.29218587 0.42147616
0.32081488 0.10938981 -0.36074972 0.12763841 0.40367815 -0.03182859 0.23668487 0.40876594
0.010570523 0.11667122 0.13818875 0.13401815 -0.30291447 0.22954777 0.31663242 -0.31761253

sequential/dense_2/MatMul f4 [1, 16]
00000000: 40cc cebe e49c 88bf 5420 113d e01e 80bd
00000010: 4e3e a53f 8cf2 033f 0f67 c3be 46e3 993e
00000020: c4d1 023f 8039 653e 8805 a0bd 1254 30be
00000030: e6ac d13f a8dc d63e a9b6 a93f 9bee d3be
-0.40390205 -1.0672879 0.03543122 -0.06255889 1.2909639 0.5154197 -0.38164565 0.30056208
0.51101327 0.22385216 -0.07813555 -0.1721957 1.638089 0.41965222 1.3258868 -0.4139298
